RL_Double_Dueling_DQN/qnetwork.pth (torch, 544898 bytes, 11 tensors)

feature_layer.0.weight f4 [256, 9]
00000000: 43df d5be 6f55 d2be 4c0b 2ebf 460b 9d3d
00000010: 16b0 d0bd f4ff f43c 7cd2 183f 37f7 aa3e
00000020: 7cb4 c6be 302a babc a08e e13d 1157 1ebf
00000030: 215f 09be a745 873e baa7 463e 583d ab3e
00000040: e08f 32bd 59da 29bf 17d5 32bf ca60 8e3e
00000050: e23b 733f 5d60 2bbd 5559 f9be 8408 773e
00000060: 9069 d7bc 7d64 a5bd e18c e3be 0320 bd3e
00000070: 0927 a13e 15da 3c3f b6a9 b13d b5f2 06bd
00000080: 50ba c2bd 17f1 d13e ce6f 68be 732b 7f3c
00000090: 0d19 9e3d 3518 33be 1e5b 4dbf 6f99 acbe
000000a0: 042d bf3d 570a 6ebe 6b70 ba3e e9dd 9bbb
000000b0: 7553 953e ad88 2bbe 6593 433f 1fdc fd3e
000000c0: 4c1f cd3e 7dfa 21be 1616 c7bd 2e59 943d
000000d0: d5f5 46be c3fc dabd ad7d 83be 051b 52be
000000e0: 3c61 993f d022 b7be 7bd8 88bd 12a5 46be
000000f0: 322d 793e 3f7d 36be 2ff1 76be 37b6 73be
00000100: fe08 093f 5140 1d3f 6d1d 9b3e 26d2 f9bd
00000110: fc50 88be fb7b c1be 2fb5 643d ad71 ad3e
00000120: 8ed6 0bbd 0e9b 0d3f b0c4 5cbf fb86 b7bc
00000130: fa87 0cbe 5fdc 203e 569c bebe 5d5c a63c
00000140: 450f aebe f6fb cebe bf07 023e 1023 18be
00000150: 5c26 15bd 2011 c73c 51ca 74be 6227 94be
00000160: 79de 013f 5344 4e3d 6147 273f 6ba5 5ebf
00000170: e8ad 99bd e4c9 e83e 7009 07bf 1c4f 01bd
00000180: 55d0 3fbc 3107 7b3e 09cf 13be 1725 15bf
00000190: bcc6 5c3e b0c4 8abe 04fb ccba 29cd 263e
000001a0: 49bc b7be 359f b13c 6390 213d 3106 df3e
000001b0: 2c2c 8bbd d8a7 a83d 7f06 02bf c661 d23d
000001c0: dffe 96be 581a 87bd 5c4e b23e 9765 de3e
000001d0: 1654 15bf f6d4 193f 523e c1bd 10d7 343f
000001e0: e0aa 803c 833e d13d c8c7 d6bd 28b4 06bf
000001f0: 0261 89be 7b0b 3fbe 7cfc a83f 4ae1 0f3e
00000200: 7963 cbbf b070 913e a17e d8bd 613c c53d
00000210: 2ee6 e2bd 3627 f7bd efce 11bd 37e4 ae3e
00000220: 5ced 18bf 982a bd3c cccd af3d a1e4 573d
00000230: 9b25 a13d 1f08 41be 7481 983e 5702 fb3d
00000240: 75c2 80bf ee5b 833f 3be7 2ebf 6d12 eabc
00000250: ef2e 98bd 2e8e 7dbd 673c b53d 0839 cabe
00000260: 6e78 05be 1dcf 1dbe 5be0 913d 1dbf ee3e
00000270: 14c3 debe cbb5 acbd 4f08 93be 79ba bd3e
00000280: aefa 843d 1e20 c03e 6d17 d43d 6d71 af3e
00000290: 59cf 733e f5cf 9a3d a5e6 7ebd c646 b3be
000002a0: 1249 b9be e9c6 263e d472 af3e 3a4c 66be
000002b0: fc03 dbbe 8d23 143e 97cd 733d 73e6 823e
000002c0: 4489 efbe 37c0 0d3e b0d9 2cbf 3843 4c3e
000002d0: 5144 48be 8398 4b3e 8813 c5bd 2d17 36bd
000002e0: 0aa8 373d 2e6e b9bd a001 45be 4576 9f3e
000002f0: af95 e3bd 907b 773f a64b cd3e 9620 bbbe
00000300: 9e19 67bd 87fa 10be 85fb 1c3c 4d88 98be
00000310: 4a8d 3abe 11d6 3dbd bbef 6f3f 2b69 cf3d
00000320: 981f d2be d769 a73d dfc3 0d3c a812 233b
00000330: 9404 fa3e ddda 2abf 5003 3ebe 1c9c 19be
00000340: d805 25bf 3e93 3e3e 609f 15be 1e55 cdbd
00000350: 7db2 243e 52b0 9a3e 5398 cabd 5304 8a3e
00000360: d59b f63e 822e f53e 1708 abbe dbc7 433e
00000370: 8c72 093f 11fd 8e3d 6046 323d 5ca9 2bbe
00000380: 2949 f0be e004 873f ab1b d4bd 2340 43bf
00000390: 2f5d 0e3f 645e 5e3e ad3e 36bf ad73 c23c
000003a0: d027 c93e 3d7e e5bd 7334 fa3d 86fe 70bf
000003b0: d6e3 10bd 8321 f43e f88e e2bd e670 42bd
000003c0: df2c 70be cc9a 03bf 2db6 a0be e6e9 6fbf
000003d0: 7392 f93a b5f6 863e 881c 2ebe 93e6 e03d
000003e0: 4084 62be ca8a edbe 0b22 37bf c4df 94bd
000003f0: 1342 52bf 000d fc3d c2e6 fabd 3180 a03d
-0.41771898 -0.41080806 -0.6798599 0.07668166 -0.10189836 0.029907204 0.59696174 0.33391735
-0.38809574 -0.022725195 0.11013532 -0.618516 -0.13415195 0.26420328 0.1939992 0.3344524
-0.04359424 -0.663488 -0.698564 0.2780822 0.9501325 -0.041839946 -0.48700967 0.24124342
-0.026295453 -0.08075807 -0.4444342 0.36938486 0.31475094 0.73770267 0.08674948 -0.032946307
-0.095081925 0.4100425 -0.226989 0.015574324 0.07719622 -0.17489703 -0.8021716 -0.3371081
0.09334758 -0.23246132 0.36413893 -0.0047566784 0.29165235 -0.16751356 0.7639678 0.49582002
0.4006294 -0.1581821 -0.097210094 0.07243572 -0.19429715 -0.10692742 -0.2568182 -0.2051812
1.1982799 -0.35768747 -0.066819154 -0.19398907 0.24333647 -0.17821215 -0.24115442 -0.23799978
0.53529346 0.61426264 0.30295888 -0.12198286 -0.26624286 -0.37789902 0.055836853 0.3387579
-0.034140162 0.5531472 -0.8623762 -0.02240323 -0.13723746 0.15709065 -0.3722865 0.020307714
-0.33996025 -0.40426606 0.12698267 -0.14857125 -0.036413535 0.024300158 -0.23905303 -0.28936297
0.5073009 0.050358128 0.6534329 -0.8697116 -0.07503873 0.4546653 -0.52748775 -0.031569585
-0.011707385 0.24514462 -0.14434446 -0.5825972 0.21560186 -0.27103186 -0.0015638773 0.162892
-0.35885838 0.021682361 0.03944434 0.4355941 -0.067955345 0.08235139 -0.5079116 0.10272555
-0.29491326 -0.065968215 0.34825408 0.43436882 -0.5833143 0.6009058 -0.09435715 0.7064066
0.01570648 0.10217001 -0.10487324 -0.52618647 -0.26831824 -0.18656723 1.3202052 0.14050785
-1.5889732 0.28406286 -0.105710275 0.09630657 -0.110790595 -0.12068026 -0.035597738 0.3415849
-0.5973718 0.0230916 0.085841745 0.052708272 0.07868501 -0.18850754 0.29786265 0.12256306
-1.0059344 1.026243 -0.6832158 -0.02857324 -0.07430827 -0.06190317 0.088494115 -0.39496636
-0.13034222 -0.15411039 0.071228705 0.46630183 -0.43508208 -0.08433112 -0.28717276 0.3705633
0.06493126 0.37524503 0.103560306 0.34266225 0.23809566 0.07559196 -0.06223168 -0.35014933
-0.3618856 0.16286816 0.34267294 -0.22490016 -0.42776477 0.14466687 0.059522238 0.25566444
-0.46784413 0.13842855 -0.67519665 0.19947517 -0.1955731 0.19882397 -0.09622866 -0.044455696
0.04483799 -0.09054218 -0.19238901 0.3114492 -0.11112534 0.96672916 0.40096778 -0.365483
-0.056420915 -0.14158069 0.009581451 -0.2979149 -0.1821796 -0.046346728 0.93725175 0.10127481
-0.4103973 0.08174484 0.008652656 0.0024882946 0.48831618 -0.6674021 -0.18555951 -0.15000957
-0.6446204 0.18610856 -0.14611578 -0.100260004 0.16083713 0.30212647 -0.09892335 0.26956424
0.48165765 0.47887045 -0.3340461 0.19119208 0.5369041 0.06981862 0.043524146 -0.16763824
-0.46930817 1.0548363 -0.1035684 -0.7626974 0.55610937 0.21715695 -0.71189386 0.0237368
0.39288187 -0.11205719 0.12217035 -0.9413837 -0.03537353 0.47681817 -0.110624254 -0.04747095
-0.23454617 -0.51408076 -0.3138899 -0.93716276 0.0019040838 0.26360098 -0.17003071 0.109814785
-0.22120762 -0.4639495 -0.7153632 -0.072692424 -0.8213207 0.12307167 -0.12251045 0.078369506

feature_layer.0.bias f4 [256]
00000000: 4227 6fbe a623 e7be 5304 8abd e9bd f03c
00000010: 1a35 75be e82a 8e3e e6a2 05be 5bfb d1bd
00000020: 3f86 1c3e c1f5 2dbe f0f1 a3bd e9eb 9cbd
00000030: 6f19 69be e45f 3a3d d52d d4be f56e 023e
00000040: 20ae 613d 7683 14bf 0962 05bf 284d 573d
00000050: 1d1f 62be 624f 163e e825 28bd a582 87be
00000060: f5dd fbbe 63c6 39be 1b24 0e3e 7991 64bd
00000070: 6a5c 48be 9c81 c03d da4c 44bf c778 703e
00000080: 526c 27bf b56f 2c3f 9a77 25be 70f6 d9be
00000090: 802c 10bf f36c 1cbe 67d5 e5bc 1a0d 70be
000000a0: 465a 453e 4421 9bbd 457d 8cbe 79ed 8a3e
000000b0: c0db 6b3d 7a76 5bbe 6866 923e 29a7 abbd
000000c0: 964c 96be 2750 1bb7 5788 a83e 75b8 39be
000000d0: a0c2 67be 7567 9ebe ce6d 493e 0625 c7be
000000e0: b6fe 39be 9d53 183e 37c8 41bf c511 edbe
000000f0: 8f25 73be faab 23bf 7638 173e 5e14 d13e
00000100: 1806 29be f8f7 c3ba 8db5 bf3e 6917 0a3c
00000110: 3f6e 8fbe 877f e73d 9fca 54bf 2078 abbe
00000120: 8aae 75bf 6645 fabd c8dc 05be 1b1f b3be
00000130: a798 7abe 4a9b d93d feba bbbd caf2 32bc
00000140: fa4f 61bd 5c7f c6be 8610 35be e2dc edbd
00000150: 44e5 813e 2a3e c7be f45a e6be fe80 9bbe
00000160: 4fd1 5cbe 83af 2abc 20c1 8fbd 85f2 cbbe
00000170: 801a c9be 3771 af3d 3b7f 8b3e 1359 d1be
00000180: d569 d5bd 05ad 8fbe 8cc2 123e d269 62be
00000190: ecfe d7be d907 a8bd 738b f13d 685a babe
000001a0: 461e babe 80a4 e4bd 6da0 9ebe 8c5e c4bd
000001b0: 48b7 a7be db80 95be 1ec6 4e3e 5031 49bf
000001c0: 3145 583b 0982 413e 588e 17bf a27b 91bd
000001d0: 8fb2 4ebe d51e 39bf bfaa 213e 979c acbe
000001e0: 3964 c7be eb89 63be c82f b83e 3d59 0abf
000001f0: 6402 2bbe fce0 40be e2b9 6b3e 53cb 10bf
00000200: 8083 533e 0188 adbd 35b4 11bf d788 02bf
00000210: aab9 123d 6c2f 763e 5d93 463e bb39 7bbd
00000220: ef8a 0cbf bc0c e2be a6e1 21bf 0a4f 173e
00000230: ead6 653d d300 9fbe 8880 f8be b4ed 293e
00000240: 6258 1c3d 8a71 ccbe 9e93 173f fa41 55be
00000250: 963a b2bc df68 6b3e 1450 973e d7ff 803e
00000260: 12b6 bbbe 9eec f5be b853 8a3e bd03 3bbe
00000270: 109c 16bd 56db ecbc 8424 45be 3ad3 9b3c
00000280: 71b2 df3d efc8 c1be 11e6 993d de0f bdbe
00000290: 19e2 ee3e 5e2b 7dbe b4fe 1ebf 064e 60be
000002a0: 36b5 b8bd a3f9 2ebe a0ef d5bd 0d74 8a3e
000002b0: 7865 fd3e 8349 8fbe 7e3e 35bd 4209 1bbe
000002c0: b169 0fbf a9f4 1cbe f736 89be c7f1 cabd
000002d0: b852 d63e 43c8 d43e dfe0 27be 25da 6f3e
000002e0: 3eda 8f3e 3d4c 543e 4a68 34bd 4d06 9bbe
000002f0: c828 e83d 1a4b aebd 15f9 963e ab76 cdbe
00000300: 1e8e 01bf 1b57 e73d 7274 99bd 88e0 a73c
00000310: a992 ebbe d76c ce3e 0d54 033f e70f 453e
00000320: 7b19 063e 36df 86be c806 673e 28c3 92bd
00000330: 4482 0bbe 1568 59be bf9f 3cbd 9985 433d
00000340: 2fdb 4f3d 1567 923d 75fc 003f e62d 34bd
00000350: 5192 0abf 813b 8a3e db69 e13e b85a a4be
00000360: 6017 7fbe 2b1f 3bbe d04a ef3d 3df5 813e
00000370: c0f9 59bd d286 853e 9063 b2be 7439 b8be
00000380: f010 73be d4a8 14bf dc06 053f eadf 3d3e
00000390: c35e 8dbd ad11 dabe 4436 9abd 1c0a 0dbf
000003a0: 1c64 c5bd 2a80 203f d615 a5be 710e d0be
000003b0: 3c66 c5bd 245e 41bd fdf8 acbd 3eea b33e
000003c0: aae0 b93e 6270 aabd 7f0b 83bd b425 06bf
000003d0: 67c8 c1bd aa0f 99bd 4aea 27be c86e f2be
000003e0: f9fb 993c 9a1c ad3d e566 183e a2b2 c13d
000003f0: 7e3e 22bf 43e9 353e dcf4 c0be 6c29 883c
-0.2335482 -0.45144385 -0.06739106 0.029387431 -0.23946038 0.2776711 -0.13050422 -0.102530204
0.15285586 -0.16988279 -0.0800513 -0.07662184 -0.22763608 0.045501605 -0.41441217 0.12737639
0.0550977 -0.58013093 -0.52102715 0.052563816 -0.22082181 0.1467872 -0.041051775 -0.2646686
-0.49192777 -0.18142085 0.1388096 -0.055802796 -0.19566503 0.09399721 -0.76679766 0.23483573
-0.6539966 0.6735795 -0.16158906 -0.4257083 -0.563179 -0.15275936 -0.02805586 -0.23442498
0.19272718 -0.07574704 -0.27439323 0.27134302 0.057582617 -0.21431914 0.28593755 -0.08381493
-0.29355305 -9.257382e-06 0.3291652 -0.18136771 -0.22632837 -0.30938306 0.19670793 -0.38895434
-0.18163571 0.14875646 -0.7569613 -0.4630262 -0.23744796 -0.6393429 0.14767632 0.4083585
-0.16506231 -0.001495122 0.374432 0.008428433 -0.280138 0.11303621 -0.83121675 -0.33490086
-0.9596945 -0.12220268 -0.13072503 -0.3498467 -0.24472295 0.10625322 -0.09166525 -0.010922143
-0.055007912 -0.38769042 -0.17682084 -0.11614396 0.25370228 -0.38914615 -0.44991267 -0.3037185
-0.2156422 -0.010417822 -0.070192575 -0.39833465 -0.3927803 0.08566516 0.27245507 -0.4088827
-0.104205765 -0.2806169 0.14332026 -0.2211068 -0.42186677 -0.08204622 0.11794176 -0.363971
-0.36351222 -0.111641884 -0.3098177 -0.09588346 -0.3275702 -0.2919987 0.20192763 -0.7859087
0.0033000226 0.1889726 -0.59201574 -0.07103659 -0.20185302 -0.7231267 0.1578779 -0.3371322
-0.3894365 -0.2222058 0.35973954 -0.54042417 -0.1670013 -0.18835825 0.23020127 -0.5656025
0.20655632 -0.08473206 -0.569156 -0.5099005 0.035821594 0.24041528 0.19392152 -0.061334353
-0.54899496 -0.4415034 -0.6323494 0.14776245 0.05611316 -0.31055316 -0.48535562 0.16594583
0.038170226 -0.39930373 0.5920962 -0.2082595 -0.021756452 0.22989224 0.29553282 0.2519519
-0.36662346 -0.48032087 0.27016997 -0.18263145 -0.036769927 -0.028913181 -0.19252211 0.01902162
0.10922707 -0.37848613 0.07514585 -0.36926168 0.46656874 -0.24723575 -0.62107396 -0.21904764
-0.09018938 -0.17087416 -0.104460955 0.27041665 0.49491477 -0.27985772 -0.04424905 -0.1514025
-0.5602065 -0.15327705 -0.26799747 -0.099093966 0.41859984 0.41559038 -0.16394375 0.2342306
0.28096193 0.20732208 -0.04404477 -0.30278245 0.113359034 -0.08510418 0.2948691 -0.401296
-0.5060748 0.11295911 -0.07492913 0.020492807 -0.4601033 0.40317413 0.51300126 0.19244348
0.13095658 -0.2634217 0.2256118 -0.07166129 -0.13623911 -0.2123111 -0.046050783 0.04773483
0.05074614 0.071485676 0.5038522 -0.043989085 -0.5412951 0.26998523 0.44026074 -0.32100463
-0.2491126 -0.18273608 0.11684191 0.25382414 -0.053216696 0.26079422 -0.34841585 -0.35981333
-0.2373693 -0.5807011 0.5196359 0.18542448 -0.0690284 -0.4259161 -0.075298816 -0.5509355
-0.09638235 0.6269556 -0.32243222 -0.40636018 -0.0963864 -0.04720892 -0.08445928 0.3513965
0.36304218 -0.083222166 -0.06398677 -0.5240128 -0.09462052 -0.07473691 -0.16397968 -0.47350144
0.018796908 0.08452721 0.14883001 0.094579 -0.63376606 0.17764764 -0.37686813 0.016621314

feature_layer.2.weight f4 [256, 256]
00000000: b079 1f3f 4112 943e 171f a9bf 65f7 35bf
00000010: 832d 19be 86ae 7abf 03f1 7f3c 81ac 463f
00000020: 7109 94be 0093 003e b591 bebd 6b3b d93d
00000030: a144 063e 7d3f bcbd a4b0 df3d 90e9 c43d
00000040: 12c0 09bf d01d a3bd a7fd 9abe cc66 0bbf
00000050: c116 b8bd 10b7 d1ba da8e 0bbf 6b46 a73d
00000060: 86df 863e 03c1 07bf df3e 6cbf edf0 19bf
00000070: 6457 60be d86c 6dbd 739d 0e3f d02c 03bf
00000080: 0377 653e 46c7 bbbf 3dd6 65be 2e6b 273d
00000090: eb4d 04be b2dc cd3a 0499 88bf a11d 113e
000000a0: 9a8e 543d d073 f2bd fa49 0ebe 542d 943d
000000b0: 3bd1 cabe 6b3a 3fbe 11d6 a3be 5b81 9cbf
000000c0: 5255 5a3e 07bc c3be 400b 6abe 910f 05bf
000000d0: 8c0e 30bf 4318 543d 8a6d 833f 1466 a1bb
000000e0: a49e 73be 36be ab3d 7b5a 12bf 90c8 c5be
000000f0: d36f 113f 4e8b c8be b042 f6be d75a 493f
00000100: c98a 733f 171d 5ebe 75f6 5a3e d45d 1fbe
00000110: de0d 08bf 058a 123e 3979 3c3e a760 06be
00000120: bbac 993e f433 f63d 2177 9cbe ae62 dabe
00000130: 58ff 893e 06ae 74be b0aa 8f3d 4bd9 88be
00000140: 914e 8d3f 932f ae3d 2146 83be a949 88bd
00000150: 0346 9c3b da2a 82bc d4c0 a0be 64f7 343e
00000160: 88ea 3b3e 8684 30bf 75aa 3e3e 57ec 743e
00000170: cbe0 533f bea6 163e 93dc 9e3d beee 783e
00000180: 1862 8a3e 980e 833e 2702 b2bf 02f4 163f
00000190: 7ffc 3cbe fa0c 9c3e 7d0b f93d ea1b b23e
000001a0: 5d21 cbbe 7238 1b3f fef7 823e b0e5 b8bd
000001b0: aacf 123e a2bc 07be 4dd7 60be b2fe 81be
000001c0: 46bb dfbe 7605 c03d 5eab 12bf b7dd 9b3e
000001d0: 9e59 653c cf4b b2be 310a 823d 3c73 173f
000001e0: 723e eabe bc72 0b3e cefc 753e f43f d13e
000001f0: 0117 8fbc dc01 84bd 5b32 c93e 634c babf
00000200: 0069 c4be 739c 0bbc b9fc 133f 8ec1 a0bd
00000210: 58d4 02bf 4c3c 973e 2517 c3bb c016 cc3e
00000220: 632b 9a3f 69a0 b23e 0995 e9be 3333 103e
00000230: cfad 15bf ff9d e6bc cf3e 24be cda9 abbe
00000240: 048f 9cbf 288e cfbd d91b 86bc 8f6f 43be
00000250: b49b 35bf 257b ca3e b06f 033e d3aa abbf
00000260: d60f 0fbe c71f 85bc 38d8 833e cbbc c73e
00000270: 6321 2dbe 31b7 7e3c 1a25 97be a9c7 22bf
00000280: 7a61 42be c517 98bf 723e 893c 6834 b23d
00000290: 6c00 52bf fabb 983e 5197 36bf 8151 6b3d
000002a0: 4d3c 963e 2697 363e 418f d8bc c932 d4be
000002b0: ed9a 8bbc 9b9d 2fbe d345 ea3d 1b8e 71be
000002c0: bfcb 0fbf b9c2 d33e c30a efba b7f9 6f3e
000002d0: dd4a aebf bb68 a4be 6ace bebe e3fe a6be
000002e0: 615b 8bbf 19f6 903e 0e84 5b3f 2093 d4be
000002f0: 6b2d 97be 62dc b6be 3f0c 6d3d c89c 78be
00000300: 491a 9b3b e357 673e 78ad dcbe d04a a8be
00000310: 790d 28bf ebfc 16bf ad16 a4be 6637 87be
00000320: 8496 e8be 7a7a 0cbf 08fe 123b 6469 6dbe
00000330: 5b32 09bd f6ec c7be 4f14 babf 494c 85bd
00000340: 9236 5fbf 9d7e 19bf 8c30 70be b84f 453f
00000350: 748d 393d d2ba 733e 084d babd 4bd1 d33d
00000360: 8188 db3e db54 7e3e 8e7c ff3d 4501 0dbf
00000370: 892a e8bd def1 bebd 07ee a63d fcf5 27bf
00000380: 915d a33e 6c64 65bf d015 52be 4d1f debd
00000390: 60bc 443e 9b5d 0d3f 675b f33e 75c4 02bf
000003a0: 8f4c db3d 7630 7cbe 7761 3cbf 0572 a23d
000003b0: 81d5 1c3e 753e 16bf 7d09 9fbe 4424 163e
000003c0: 6b90 633d 5401 8cbe 65af 803e 4274 763e
000003d0: 438f 703f 8aac 7d3e 59f0 a7bd 3f65 6abf
000003e0: 2db1 a03e dd4c dbbe 0669 0dbf 94b4 b1be
000003f0: ed3f 493f dc0a 0bbe 80f6 2bbf a953 a63e
0.62295055 0.28920177 -1.3212613 -0.7108062 -0.14958768 -0.9792255 0.0156214265 0.7760697
-0.28913453 0.12556076 -0.09305135 0.10607036 0.13112117 -0.09191797 0.109223634 0.09614861
-0.538087 -0.07964671 -0.30271646 -0.5445373 -0.08988715 -0.0015999991 -0.5451485 0.08167728
0.2634241 -0.5302889 -0.92283434 -0.6013325 -0.21908337 -0.05796513 0.55709 -0.51240253
0.2240868 -1.4670188 -0.22445007 0.0408737 -0.12920348 0.0015706031 -1.0671697 0.14171459
0.051893808 -0.11838496 -0.13895407 0.07235208 -0.39612755 -0.18674628 -0.31999257 -1.2226976
0.2132161 -0.3822939 -0.22855854 -0.5197688 -0.68772197 0.05178095 1.0267804 -0.0049254987
-0.23790985 0.08385889 -0.5716931 -0.3862958 0.56811255 -0.3916878 -0.48097754 0.78654236
0.95133644 -0.21690784 0.21383078 -0.15563136 -0.5314616 0.14310463 0.18405618 -0.13122807
0.30014595 0.12021628 -0.30559638 -0.42653412 0.26952624 -0.2389451 0.07014978 -0.2672828
1.1039602 0.08505168 -0.25639442 -0.066546746 0.0047690882 -0.015889574 -0.31397116 0.17672497
0.18351185 -0.68952215 0.18619712 0.23918281 0.8276488 0.14712045 0.07756915 0.24309823
0.27027965 0.25597072 -1.3906907 0.58966076 -0.18455695 0.3047865 0.12160394 0.34786922
-0.39673892 0.60633004 0.25579828 -0.090281844 0.1433703 -0.13255551 -0.2195713 -0.2538963
-0.43697566 0.093760416 -0.57292736 0.30442593 0.013998417 -0.34823462 0.063496 0.5916021
-0.45750767 0.13617986 0.24022219 0.40869105 -0.017467024 -0.06445667 0.3929623 -1.4554561
-0.3836136 -0.008521187 0.578075 -0.078494176 -0.5110526 0.2953819 -0.005953687 0.39861107
1.204449 0.34888008 -0.45621517 0.14082031 -0.58468336 -0.02815151 -0.16039585 -0.33527985
-1.2231145 -0.10134536 -0.0163707 -0.19085525 -0.7094071 0.39547077 0.12835574 -1.3411506
-0.13970885 -0.016250504 0.257509 0.39011225 -0.16907267 0.015546606 -0.29520494 -0.6358591
-0.18982497 -1.1882254 0.016753409 0.08701402 -0.82031894 0.29830915 -0.7132464 0.057450775
0.2934288 0.17831096 -0.026435496 -0.41444996 -0.017041648 -0.17149965 0.11439099 -0.23589365
-0.56170267 0.413595 -0.001823746 0.23435102 -1.3616596 -0.32111153 -0.37266856 -0.32616338
-1.0887262 0.28312758 0.85748374 -0.41518497 -0.2952684 -0.35715014 0.057873007 -0.24278557
0.004733358 0.2259212 -0.43101096 -0.32869577 -0.6564556 -0.5897967 -0.3204855 -0.26409453
-0.45427334 -0.54874384 0.0022429246 -0.23184735 -0.03349529 -0.39047974 -1.4537448 -0.06508691
-0.8719264 -0.5995882 -0.23456019 0.77074766 0.045300916 0.23801735 -0.09096724 0.10342654
0.42877582 0.24837057 0.12474929 -0.5508006 -0.11336238 -0.09323476 0.08150869 -0.6560972
0.31907323 -0.89606357 -0.20516133 -0.10845814 0.19212484 0.55220956 0.47530672 -0.5108102
0.10707962 -0.24627861 -0.7358622 0.07931904 0.1531582 -0.5868905 -0.31061926 0.14662272
0.05555765 -0.27344763 0.25133815 0.24067786 0.939686 0.2477285 -0.082001396 -0.9156074
0.31385174 -0.4283208 -0.5523838 -0.34708083 0.7861317 -0.13578361 -0.67173004 0.32485703

feature_layer.2.bias f4 [256]
00000000: 0ec5 c8bd 3450 d43c c55b a43c a3c5 1cbe
00000010: b793 5ebd 6296 ff3d 2afb aabc ebd0 bfbc
00000020: 5598 833c 2be9 973d 49f8 f03c aafd ea3e
00000030: 76b0 1a3d 890e 023d 16a3 af3c 9eff 18bc
00000040: 90a2 8e3e 9266 ddbc 0156 a53e 14b8 713b
00000050: f430 28bf c3f3 f73e fbaa 173c 6b2d a4bd
00000060: e92f 25bd 3440 cfbe 4d7f b0bd 90c8 14bd
00000070: 4748 85be 902b 88be 5219 c7bb 3755 99bd
00000080: 7a64 843d 1389 cc3e a150 dcbd bcca c8bb
00000090: ae01 bb3d 7d58 793e eb8b 5c3e a584 43be
000000a0: 247b b3bd 2c29 853e 39e0 853b 141f cc3d
000000b0: b112 ac3d 47b5 723d 9982 74be 7251 44bd
000000c0: b1b9 90bd ad96 2b3e 1517 fa3e 1a3a 8ebd
000000d0: b717 24be 30ad b33e 7b16 423e cdf0 eebc
000000e0: f1a9 87bd e6d8 dabe 1eac e43c 51ec b13d
000000f0: 9b6f 26bb df8c 583e f78c 81be 8cfb 52bd
00000100: 5ab1 c73e 127a 13bd ca2b 5e3d edef 5abb
00000110: d8fe a23e 98e8 b7bb bf23 773c b232 72bd
00000120: 0a34 d0bd abb9 60bd 182f 053f abe4 22bd
00000130: 6bc9 97bd 659d 42bd d056 3bbd 0cb2 3dbc
00000140: e086 a03e 5266 0d3d 9ccb 083b e585 7a3e
00000150: 099c 4b3f be80 cfbc 54c7 edbe b068 3d3e
00000160: a091 70bb 53ec dfbc 08e2 52bd b867 25bb
00000170: 715d 7abc 81f3 db3b d14c edbc 7a59 aabd
00000180: 9ccb 7bbd 429f 0ebd 6c64 4d3e 5396 56bc
00000190: 912a 623e 15c2 dfbe 6510 0fbb 7092 133f
000001a0: 30e7 bb3e 83eb e43c d5ad 7d3c 6f8c 973d
000001b0: 8101 f7bc 04bb d83e 62aa c4be bac4 b3bc
000001c0: 8c07 403f 1d55 233e 1af4 0cbd dcfc 273e
000001d0: be1a 9e3b 3389 9ebc dab4 31bd 8697 65be
000001e0: af25 7bbd 42b7 97bc c646 143e 81d9 a9bd
000001f0: 7f7b b7bd db6e 42bd 65d0 1f3f c86f d93e
00000200: 4ee2 0abd 4b85 86be 4244 7cbd a8bf a63d
00000210: 9ba7 9cbd 03ea adbe 0d28 e1bc 1def 72bc
00000220: a933 e7bc a492 8f3d 2944 75be 63c2 bb3d
00000230: 01cf 20bd 3097 a7be 3b24 41be 6eb8 5fbd
00000240: 4306 273d cae1 cbbd 657f f9ba 2174 6ebd
00000250: 6151 3bbc 629b 38bd 6d1e 0abe db22 6cbd
00000260: 79a4 383e 2966 6fbc 6a63 e1bc 095a 51be
00000270: c8e6 e0bc 723b 9dbd 4b7f cbbd e416 c13c
00000280: 6545 d3bc db96 193e a881 0f3d 6669 873c
00000290: 8e44 1c3e e2d0 a6be f86e 1e3e c47b 84bd
000002a0: 55c5 3a3c 238a c13c 8904 5bbc a3a1 d13e
000002b0: b1ed 0b3d c1a5 61bd 07cf 693e c98a 0abe
000002c0: 43fa af3c 29c4 a8bc aad6 96be 2bc8 db3e
000002d0: 32e0 2fbe b88f db3c 21b5 723d 21cb bc3e
000002e0: 2537 e23b f502 42bd ee94 c63e f31d 8fbd
000002f0: 8b24 9c3c e452 54bc ee12 c1bd 6e43 cf3e
00000300: 94b8 6ebb 680f a5be f5dd c5be 0eb0 183c
00000310: cf7c 6c3e ce0d 3abe c3fd 81bd d619 8fbd
00000320: 45f9 da3c d9ce 8db8 9b5e 23be 696e d1bd
00000330: 5fa4 86bd aa0c 41bd ce93 fb3c 5bf1 e9bc
00000340: e062 cabe d673 58bd 7069 54bc 0c40 01bc
00000350: 2d4c 29bd 3112 953e 3b47 2fba d1b4 45be
00000360: d711 abbd 30f4 353d 8f6f 9b3b e6aa 013d
00000370: 63d0 4a3e 7d18 76be aad4 eabe 613d 87be
00000380: f7b4 f83e 1393 1f3e 405b 22bf 53bc 1a3c
00000390: 04ef a0bd 983a 76be 9f22 06bc c98c 3f3e
000003a0: 29b7 cfbc f37f c7be a031 80bd 0e9c 15bd
000003b0: 8475 aebc b58b 443e 61bb a7be 32c4 033c
000003c0: dcba 5e3d e4b2 10bf 3675 76be 1065 74bd
000003d0: 4c6f a2bc fc45 47ba d27a 6fbe abff 66be
000003e0: a979 3dbd a54b 59be fc22 c3be 59e3 dbbe
000003f0: 151d ffbd b41a 0abf 4e7d 70be ade9 863e
-0.0980321 0.02591715 0.02006329 -0.15309767 -0.05434009 0.12479855 -0.020871717 -0.02341505
0.016063849 0.0741752 0.029415267 0.45896655 0.037765943 0.031752143 0.02144007 -0.009338288
0.278584 -0.027026448 0.32292178 0.00368834 -0.65699697 0.48428163 0.0092570735 -0.08016475
-0.040328894 -0.4047867 -0.08618031 -0.036324084 -0.26031706 -0.26595736 -0.0060760165 -0.074869566
0.06464477 0.3994833 -0.10757566 -0.0061276834 0.0913118 0.24350162 0.2153775 -0.19093569
-0.087637216 0.26007974 0.0040855673 0.09966865 0.084020026 0.05925491 -0.23877944 -0.047929235
-0.07066668 0.16756697 0.48845735 -0.06944676 -0.16024671 0.3509307 0.18953888 -0.029167557
-0.066242106 -0.42743605 0.027914103 0.08687652 -0.0025396112 0.21147488 -0.2530286 -0.051509425
0.39002496 -0.036005087 0.05424098 -0.0033407167 0.31835055 -0.005612444 0.015084206 -0.059130378
-0.10166176 -0.054864567 0.52024984 -0.039768856 -0.07411464 -0.047513384 -0.045737088 -0.011578094
0.313529 0.03452141 0.0020873314 0.24465139 0.79534966 -0.025329944 -0.46441138 0.18496966
-0.0036707893 -0.027334368 -0.05148509 -0.0025238823 -0.015281067 0.0067123775 -0.028967293 -0.083178475
-0.061473474 -0.03481985 0.20057839 -0.0130973635 0.2208655 -0.4370276 -0.002182984 0.5764532
0.3669982 0.027944332 0.015483339 0.073998325 -0.030152084 0.42330182 -0.38411242 -0.021944392
0.75011516 0.15950437 -0.03441248 0.16405052 0.0048249653 -0.019352531 -0.043385364 -0.22421083
-0.061315235 -0.018520001 0.14480123 -0.08293439 -0.08959102 -0.047469 0.6242736 0.42468095
-0.033907227 -0.2627357 -0.061588533 0.08142024 -0.07649156 -0.339676 -0.027484918 -0.014827517
-0.028222876 0.07010391 -0.23951782 0.09167936 -0.039259914 -0.32732534 -0.18861477 -0.054619245
0.040777456 -0.09955175 -0.0019035159 -0.058216218 -0.011432976 -0.04507006 -0.13488169 -0.05765043
0.18031491 -0.014611759 -0.027513225 -0.20444502 -0.027453795 -0.07677354 -0.099363886 0.023570485
-0.025789926 0.14998953 0.03503576 0.01652975 0.15260527 -0.3258124 0.15472019 -0.06468919
0.011399587 0.023625439 -0.0133677805 0.40943632 0.034162227 -0.055089716 0.22832881 -0.13529505
0.021481639 -0.020601349 -0.2946065 0.42926154 -0.17175367 0.026801929 0.05925477 0.36873725
0.0069035464 -0.0473661 0.387855 -0.06988134 0.019060394 -0.012959216 -0.09427439 0.40481132
-0.0036425935 -0.32238317 -0.38645902 0.009319318 0.23094486 -0.18169329 -0.06347229 -0.0698735
0.02673019 -6.761932e-05 -0.15954058 -0.10226137 -0.0657432 -0.047131218 0.030710127 -0.02855747
-0.3952856 -0.052844845 -0.012964591 -0.007888805 -0.041332413 0.2911544 -0.00066863344 -0.19307257
-0.08353012 0.04442233 0.0047435234 0.031657122 0.19806056 -0.24032779 -0.45865375 -0.26414016
0.48575565 0.15583448 -0.63420486 0.009444314 -0.078580886 -0.24045789 -0.008186965 0.18706049
-0.025355892 -0.38964805 -0.06259465 -0.03652578 -0.02129627 0.19193919 -0.32760146 0.008042382
0.05437742 -0.56522965 -0.2406815 -0.059666693 -0.019828461 -0.0007601676 -0.23386696 -0.22558467
-0.046258602 -0.21220262 -0.38112628 -0.4294689 -0.12456719 -0.53946996 -0.234853 0.26350155

value_stream.0.weight f4 [128, 256]
00000000: 2a52 25bd 0cd4 5fbc 387d cbbc 3763 9dbc
00000010: 73a4 833d 1099 073d 830f 193d 5c76 c23c
00000020: 8c35 c53c 0aab 033d 0880 f03c 8c0c da3c
00000030: 3484 1e3d 08a4 55bd 0042 93b9 4c24 593c
00000040: 70ef 19bc 4cf6 37bb 6529 4e3c b55f 45bd
00000050: 5642 a7bd cecd 433d acb9 dcbc c027 ad3a
00000060: 6e83 783d 76db d6bc 9afb 273d 1a57 2a3d
00000070: 198d 90bd 1b2a fabc 25f0 53bd f0df 343d
00000080: dc28 65bd b7f2 dc3c e8f3 1bbc 0a49 43bc
00000090: de53 54bb 33a0 f1bb 53c6 553d 5fb2 8cbd
000000a0: d955 b7bb 54fa 653d 0cdf eabc 6fb6 39bb
000000b0: 0455 4ebd bfb7 9fbd c4fc 84bd e41f 953c
000000c0: d8b0 0abd 3dc0 8abd ae12 68bd e890 2c3d
000000d0: e18c 62bd d1ba f93c 44d7 74bd e81a 05bc
000000e0: c0be 00bd 3ae9 533d 560b 70bd ba99 abbc
000000f0: 9146 043d fe58 b2bd 6bab 81bd 1200 753d
00000100: 54e1 94bc 1894 23bd cc60 c8bc 709c 0cbc
00000110: f625 27bd c29d 583d f809 74bd e09c 62bd
00000120: 4893 ce3c c002 e63a 290f 14bd f445 fa3c
00000130: f50c adbc 0765 1fbc c66c 32bd 8313 96bd
00000140: bbf4 a9bc 103b d0bb 3074 d23c b072 52bd
00000150: a398 90bd a689 783d 7379 d5bc be28 62bd
00000160: 8b3d 35bd fa30 82bd 5a57 4bbb d0de 543c
00000170: 8cda 923c 2fe6 8abc 1e07 683d e0ba bebb
00000180: 7d9d 5dbd 40c3 b83b 0419 9e3d 9ec0 06bd
00000190: f898 10bd 25c9 e23c 6aae 6d3d caa3 053d
000001a0: 94c8 05bd 101e 813b 9407 8bbd e885 c5bc
000001b0: 06af 56bd 20ec cbbb 664b 143d 6830 00bc
000001c0: 4968 66bd 28ef 243d a0d3 4d3d 9081 d33c
000001d0: 3091 46bd 50e3 533c 288e dc3c 3c90 833c
000001e0: e0e7 163d 1899 05bc a932 a2bc 8c40 613d
000001f0: 1829 3a3d 1406 babc fc66 a2bd 8546 c53c
00000200: f410 263d 61a2 b0bc 0ce7 9cbc ea30 fd3b
00000210: 1455 a63c 301a d7bb 0627 12bc 78b3 cfbc
00000220: 3aab 493d 9009 c63c 9743 26bd 20aa fd3c
00000230: 244c d63c 6013 4fbc 45db 1dbd f8b1 573d
00000240: 0c58 273d 84ef 82bd 46fb 313d a9e0 b13b
00000250: ee02 133d 6315 fb3c ce70 023d 748e de3c
00000260: eb80 87bd 2ac9 75bd 1cc6 61bd 10eb 963c
00000270: 866b 21bd f59a b23c 9a3a 73bb a890 e53c
00000280: b06d c63b 0a09 f4bb c019 683c 6698 2c3d
00000290: fcd4 823b 450b 873b c036 1e3d 8092 f0ba
000002a0: 480b 433d a098 2ebb 45ac 123c 3776 c63c
000002b0: 788b fe3c 80cd dfbb fa0d 523d 8ec9 5cbd
000002c0: 4863 853b da4d 2fbd 8a74 00bd b984 8bbd
000002d0: 468c 08bc 96ec 7abd 215d 22bc d284 d53c
000002e0: b572 18bd 74ef 8abc b8cc e9bc 3ec1 c93c
000002f0: f379 1cbd 3ae5 27bd edbc 4abd fede 563d
00000300: 44e8 5a3d c9a6 c23c 292a 8fbd e0f3 23bc
00000310: 9c86 2e3d bf2b 723c 74b3 c73c 0031 4b3d
00000320: 6000 38bb 4e26 6c3d 654a 0e3c 7947 3bbd
00000330: f3d5 b6bb c0d4 d1ba e0b6 ed3c d174 07bd
00000340: bf40 3f3d dcdf a13c 541f 54bd 08dc 7fbc
00000350: 5c19 55bd 48ad 9ebc 2ab4 4cbd ecb9 d2bc
00000360: b06a 6f3c 300a acbc e971 95bd 00a0 5f38
00000370: 9be3 c53c b581 5abd 9baa 2ebc 66a1 b0bd
00000380: 219d 40bd 0903 eebc 5f6b a6bc 300d 84bb
00000390: e8bb babc 9df0 fd3b 5a1f 533d f0c7 163d
000003a0: 9470 953c 72e5 a23c 1ba5 033d 584c debc
000003b0: 2409 6dbd 6afc 0fbd 5b90 99bd 7d63 1dbd
000003c0: c974 4b3c a9dd 16bd ca65 f5bd eeb7 4dbd
000003d0: e099 1cbb 4c42 d6bc f4cc e1bd b9a6 603d
000003e0: e207 753d 4a46 c0bb 6769 45bd 8e88 df3c
000003f0: 66dc f7ba 8be1 1bbd 0267 41bd c94f a1bd
-0.04036156 -0.013661396 -0.024839982 -0.019212348 0.064278506 0.033104956 0.03736831 0.023738079
0.024073385 0.032145537 0.029357925 0.026617311 0.038700297 -0.052158386 -0.000280872 0.013253283
-0.009395465 -0.0028070388 0.012583111 -0.048186976 -0.081669495 0.047803693 -0.026944004 0.0013210699
0.060672216 -0.026227694 0.04101143 0.041586973 -0.07058162 -0.030537656 -0.05174269 0.044158876
-0.05594717 0.026971204 -0.009518601 -0.011919269 -0.0032398622 -0.0073738336 0.05219109 -0.06869959
-0.0055949506 0.056146935 -0.02867081 -0.0028337499 -0.050374046 -0.07798719 -0.06493524 0.018203683
-0.033860058 -0.06774948 -0.05665844 0.04213038 -0.055310134 0.030484589 -0.059775606 -0.008124091
-0.031431913 0.051736094 -0.05860456 -0.020947326 0.03229386 -0.0870838 -0.063315235 0.05981452
-0.018173851 -0.039936155 -0.024460219 -0.0085822195 -0.040807687 0.052884825 -0.05957982 -0.05532539
0.025216714 0.0017548427 -0.03614727 0.030550934 -0.021124342 -0.009728677 -0.043560766 -0.0732794
-0.02074658 -0.006354697 0.025690168 -0.051378906 -0.07060363 0.060678147 -0.026058888 -0.055214636
-0.044248145 -0.06356998 -0.0031027407 0.012992576 0.017926477 -0.016955463 0.056647412 -0.005820617
-0.05410527 0.00563851 0.07719615 -0.032898538 -0.035302132 0.027683804 0.058027662 0.032626905
-0.03266199 0.0039403513 -0.06788555 -0.024111703 -0.05241301 -0.0062232167 0.036204718 -0.007824041
-0.056251798 0.04026714 0.05025065 0.025818616 -0.048478305 0.0129326135 0.026923254 0.016059987
0.036842227 -0.008154176 -0.019799547 0.054993197 0.045449346 -0.022707976 -0.07929799 0.024081478
0.04054351 -0.021561803 -0.01915314 0.0077267783 0.02030424 -0.006564401 -0.008920437 -0.025354132
0.04923556 0.024174482 -0.040591802 0.030964911 0.026159354 -0.012638897 -0.03853919 0.05265996
0.040855452 -0.0639334 0.043452524 0.005428393 0.035891466 0.030649846 0.03184586 0.027167536
-0.06616386 -0.060006298 -0.055120572 0.018422633 -0.039409183 0.021802405 -0.0037113787 0.028023079
0.0060555562 -0.0074473666 0.0141662955 0.042137526 0.003992675 0.0041212165 0.038626432 -0.0018354207
0.04761818 -0.0026641265 0.008952205 0.024226291 0.031072363 -0.0068299174 0.05128286 -0.053903155
0.004070673 -0.042798854 -0.03136114 -0.06812424 -0.008334225 -0.061260782 -0.009909899 0.02606431
-0.03721877 -0.016959883 -0.02854 0.024628278 -0.038202237 -0.04099009 -0.04949658 0.052458756
0.053444162 0.02376117 -0.06990463 -0.010006875 0.042608842 0.014780938 0.024377562 0.049607277
-0.0028076395 0.057653718 0.008684729 -0.04572246 -0.005579704 -0.0016008839 0.029017866 -0.03307039
0.046692606 0.019760065 -0.05178769 -0.015616424 -0.052026138 -0.019369736 -0.049976505 -0.02572342
0.014612839 -0.021000952 -0.07297117 5.3316355e-05 0.024156382 -0.053346355 -0.010660793 -0.08624534
-0.04702485 -0.029054182 -0.02031487 -0.0040298924 -0.022794679 0.0077496306 0.05154357 0.03681177
0.018242158 0.019884799 0.03213988 -0.027136013 -0.057870045 -0.03515283 -0.07498237 -0.038424958
0.0124179805 -0.036832485 -0.11982305 -0.050224237 -0.0023895428 -0.02615466 -0.1102542 0.0548465
0.05982197 -0.005867754 -0.048196223 0.027286794 -0.0018910288 -0.03805689 -0.047217377 -0.07876546

value_stream.0.bias f4 [128]
00000000: 65ac aabc f042 f6be ebc0 22bd cbc4 d8bd
00000010: d85d cabd f47e 51bd efd7 cdbd 0ab7 75bd
00000020: 438c 673e d918 0bbf 16ab 6dbd 3ef5 ecbd
00000030: fe85 57bd 945d cf3e 185d cdbb 0582 14be
00000040: 1bd1 84bd f890 9fbe 9b56 d3be c3ff b1bd
00000050: 01bd 3f3f 515f 3a3f 2710 a9bd fb4b 243f
00000060: f0e5 943f 5f27 e2bd 3d8b a4bd 3c4b 2b3f
00000070: c7ee a8bd 389c d7be e931 48bd 7f61 b1be
00000080: 7447 533f 5bdd 6abd 0f3c bb3e c362 5abd
00000090: 86a8 353f cde1 edbc b6e9 823f 00d2 a4bd
000000a0: bdee 25be 3d60 3b3b 99f3 d0bd 802a 1cbf
000000b0: 1b78 be3f be6c 0abf 5fc7 6dbb 209e d7bd
000000c0: 3e0d 3c3f 7d12 573d 5b3b 0cbf b5ff 8fbd
000000d0: 3791 b5be 2076 e6be c5f4 20bc 11cc 1f3c
000000e0: 64f3 2fbe e319 8d3f b72c d8bd 42e2 a43e
000000f0: fd43 48bd 3a2c 14be c7db 863c 6729 aabe
00000100: 3605 bbbe 7e6c 3b3c ec81 ae3e fe55 c7be
00000110: 1702 c6bd f762 433f 6a45 223f 870c a5be
00000120: 9a9b 3a3f c078 9bbe 4c8b c4bd c862 c3bc
00000130: 5fd6 b7bd fe8d fb3e b845 fabe e9ee 07bf
00000140: 16ad 0d3f 4b8a d8bc 82b3 bfbd 0f9b 6dbd
00000150: 2e54 943e 0c0e 58bd 8a66 abbd 6a05 91bd
00000160: dd8e 523c fef4 493f 4771 6fbd 2f50 2dbd
00000170: 0d5d 853e 2c72 383f 433c 6ebc 3459 2abf
00000180: d4f1 50be c35b d5bd 3e76 233f 4423 85bd
00000190: 4bc8 3d3f 0a15 babd 6e27 d03c a9c2 423f
000001a0: e04a 693e 8294 1dbc dfe7 bf3b a7fe eabd
000001b0: 1da4 1b3f 5c6e 11be 7fcd e73e c935 fbbe
000001c0: b97c d33e 6d43 e4be f67f bcbd 0589 89bc
000001d0: 8d10 6a3f 7d3b fc3e a98e 7a3f 4a87 03bf
000001e0: 457f 3f3e f5c0 3bbd 56b9 96bd 768d 06bd
000001f0: 978b ddbc c2cf 92bc 5eee 8bbe 06b7 e9be
-0.020834157 -0.48097944 -0.039734762 -0.1058441 -0.098811805 -0.051146463 -0.10050952 -0.059989013
0.226121 -0.5433479 -0.05802449 -0.11570214 -0.05261802 0.40501082 -0.006267201 -0.14502724
-0.06485196 -0.3116529 -0.41277012 -0.08691361 0.7489777 0.7280169 -0.08255034 0.64178437
1.1632671 -0.11042666 -0.0803437 0.66911674 -0.08248668 -0.42111373 -0.048875723 -0.34644696
0.82530904 -0.057340007 0.3656926 -0.053316843 0.7096027 -0.029038334 1.0227573 -0.08047867
-0.16204353 0.0028591298 -0.102027126 -0.6100235 1.4880403 -0.5407218 -0.0036282165 -0.10528207
0.73457706 0.052507866 -0.5477807 -0.07031194 -0.35462353 -0.45011997 -0.009823983 0.009753243
-0.1718269 1.1023525 -0.10555404 0.3220387 -0.048892964 -0.14469996 0.01646222 -0.33234712
-0.36527413 0.011439441 0.34083498 -0.38932794 -0.09668367 0.76322883 0.6338717 -0.3223612
0.7289368 -0.30365562 -0.09596881 -0.023850814 -0.08976435 0.4913177 -0.48881316 -0.5309892
0.55342233 -0.02643313 -0.0936041 -0.058009204 0.28970474 -0.05274777 -0.08369167 -0.07081111
0.012851444 0.78889453 -0.05845764 -0.042312797 0.26047555 0.7204921 -0.014540735 -0.66542363
-0.2040475 -0.10417893 0.638523 -0.06500867 0.7413375 -0.09086044 0.025409427 0.7607828
0.22782469 -0.009617927 0.0058564986 -0.11474352 0.6079729 -0.14202255 0.4527397 -0.49064472
0.41306093 -0.44582692 -0.09204094 -0.016788969 0.91431504 0.49264136 0.9787393 -0.5137831
0.18700893 -0.045838315 -0.07359569 -0.03284975 -0.0270441 -0.017921332 -0.27330297 -0.45647448

value_stream.2.weight f4 [1, 128]
00000000: d330 74bc 4d62 c0be 6e90 81be 02f9 653c
00000010: 1a1f 093f 5eac c23c 4039 66bc 7764 c13c
00000020: cb7b 013f 7e1c 17be 27c7 6abe 6e24 04bc
00000030: f5f5 c73c c927 b53e 84bc 0e3c fa0d 123f
00000040: 312f 5bbb e91b eebe 008c 26be 8d98 7bbc
00000050: b706 883e b043 3e3e f0f0 543c b289 e73e
00000060: 794b 903e 1044 36b9 cb7f 1bbe 3bc3 9b3e
00000070: 1389 34be 6d09 c4be 1164 a0bc eb10 a3be
00000080: b358 673e 9b3f 6a3c ac18 c03e 84b6 e3bb
00000090: 2d99 8d3e 2eda 363d f768 823e 3c1b 583d
000000a0: 20cb bdbe cd11 8d3c ee17 913b ca71 7fbe
000000b0: cf2e 043f 03f2 a2be 3994 e1b9 0d05 923c
000000c0: 9ca9 db3e 1b6a 0d3f 661b 8ebe 94ef 1bbc
000000d0: 03c2 12bf 79f3 e3be 779b 37bc c033 ea3d
000000e0: 7ce3 31bf fd5e 9b3e 6b68 74bc 0ab2 6d3e
000000f0: 7c54 a73c 289d b5be 4177 383d 131e 25bf
00000100: 1c34 5bbe 0e03 2cbb ba6a 023f 257e 73be
00000110: 14fe 0bbf 8058 7c3e 9d2b da3e 37d0 ffbe
00000120: e1b5 e63e 8261 aabe 3538 263f 745e 0c3b
00000130: 1974 b03e cfa6 093f 7ffc fcbe 0ad1 0dbe
00000140: 29b6 c13d 257f 593d c56d c93a 7d14 cdbb
00000150: ed62 eb3d f663 213d 291b 88bd 64bc 21bc
00000160: b3df 673d 9f63 013f 1f8c 183c 6757 bd3e
00000170: ff77 d13e 5fcb 643e c57d d3bc 9de9 84be
00000180: 9789 babe 1107 2fbc ed39 113e ea80 eabb
00000190: 7147 4e3e 8816 823c 6984 513b 5d4d 913e
000001a0: 32a6 ec3e f6a3 2e3d bd53 b63a fd2d 083c
000001b0: c10c f33e 0586 5dbf a03b b93e 629f e5be
000001c0: 6c79 073f 4a1e 6dbe 6560 4fbc 2f81 46bc
000001d0: cc84 a43e f525 f33e e645 3b3e 0763 b7be
000001e0: 4301 a83e 0aa8 ea3c 21e0 98be 7be8 d53c
000001f0: 5e62 263c 21ad 063d 13aa cebe 5207 adbe
-0.014904219 -0.37574998 -0.25305504 0.014036419 0.5356308 0.023763832 -0.014051735 0.023607476
0.5057952 -0.14756963 -0.22927533 -0.008065326 0.024409274 0.35381916 0.008711938 0.57052577
-0.0033444876 -0.4650567 -0.16264343 -0.015356195 0.26567623 0.18580508 0.012996897 0.4522224
0.2818258 -0.00017382228 -0.15185468 0.30422387 -0.17630415 -0.3828844 -0.019578965 -0.31848845
0.2259243 0.014297391 0.37518823 -0.006949248 0.27655926 0.044641666 0.25470707 0.052760348
-0.37069035 0.017220402 0.0044279015 -0.24945751 0.51633924 -0.31825265 -0.0004302578 0.017824674
0.4290284 0.5524003 -0.27755278 -0.009517569 -0.5732729 -0.44521692 -0.011206499 0.11435652
-0.6948774 0.30345908 -0.014917473 0.23212448 0.020426027 -0.35471463 0.045035604 -0.64499015
-0.21406597 -0.0026246938 0.509441 -0.23778589 -0.5468457 0.24643135 0.426114 -0.49963543
0.45060638 -0.33277518 0.64929515 0.0021418603 0.34463575 0.53770155 -0.4941139 -0.13849273
0.094585724 0.05309977 0.0015367797 -0.006258546 0.11493478 0.03940197 -0.066458054 -0.009871576
0.05660982 0.50542635 0.009310751 0.36980745 0.40911862 0.22343205 -0.025816808 -0.25959483
-0.36433098 -0.010682837 0.14182253 -0.007156481 0.2014444 0.015879884 0.0031969792 0.28379336
0.46220547 0.042636834 0.0013910454 0.008311746 0.47470668 -0.8653262 0.36178303 -0.44848162
0.5291965 -0.23156086 -0.01265726 -0.012115761 0.32132566 0.47489896 0.18288383 -0.3581774
0.32813463 0.02864458 -0.29858497 0.026111832 0.0101552885 0.032879952 -0.4036413 -0.33794647

advantage_stream.0.weight f4 [128, 256]
00000000: 041d 113d a56d 18bd acf8 7e3d a038 923c
00000010: 88c7 13bc c468 87bc dc28 c8bc 4029 f7ba
00000020: 7839 79bc 278c 0b3c ce89 583d e81c c6bc
00000030: 066d 64bd 7293 85bc c053 41bc 82d6 80bd
00000040: 3763 923c ce6c 57bd 7c84 adbd 1d58 45bd
00000050: ca66 1c3b ee48 513d 5836 f5bb 602c 283b
00000060: 66d7 58bd 4652 2cbd 5de1 d0bc 340f dabc
00000070: ad93 44bc 9f52 67bc b9b1 42bd 08ae 7a3d
00000080: 9685 7d3c feed 5ebd 1a6d 5d3d 8096 21ba
00000090: c8e4 f3bc 0d8f b1bb 7d15 8cbd 30cc 02bd
000000a0: 89f7 9abc 4345 8fbd 7ae2 62bd 6ac9 19bc
000000b0: e5f2 39bc eb4d 3fbd 2371 6cbb 4a02 76bd
000000c0: 48ce c63c 59c4 853b 685f 99bd 5ceb 3a3d
000000d0: 42a5 c03c 4a31 52bd 4047 1fbd 603e cc3b
000000e0: 3891 093d fc1b 60bd 3c37 69bd 72cb 0cbd
000000f0: 7819 4fbd 07dc 02bc b94a 9b3c 10f8 7e3c
00000100: 47f5 093d 780f 64bd e874 f83c a4ed 05bd
00000110: 28d3 87bc 5093 c13b 9ab3 593d 5019 10bd
00000120: c4c3 a3bc 67f9 41bd 8531 2fbd 00f2 233b
00000130: 1615 51bd f875 b4bc ee50 60bd 4ff8 77bd
00000140: 72cd ebbc f0f7 0d3d 2cea e43c af2d b2bc
00000150: d59f 0bbd 309c 323c 810f 263d eb3b f33c
00000160: 3241 16bd 4841 b0bc c8c8 3abd 00a7 9d39
00000170: 28d8 d0bc 6692 52bd 806d 08bc b0a2 f43b
00000180: a66a 7abd 602c 483d 04a6 a43c 2af8 21bd
00000190: 18ff 20bc 15a1 183d 7e55 6abd 8c6e 61bc
000001a0: 94ca 16bd 2cd2 9a3c 4469 dd3c e729 323d
000001b0: c23c 1c3d 2c4f fd3c a2f9 49bd 4015 723c
000001c0: 4d3b 40bd 805c a3bc e0d1 bf3b fa3e 193d
000001d0: c039 fa3c 1016 a73b 361f 5f3d ec36 c13c
000001e0: 2043 7b3b 003d adbc 922e babb 9400 a83c
000001f0: e41f 2dbd 7096 033d dd76 90bd 71c5 2a3d
00000200: d8f1 2b3c ce56 4bba 74b3 093d fab0 0f3a
00000210: e0ee 5cbb f157 ea3b dad6 46bd 3097 f1bb
00000220: 5060 a53c c888 463c af92 7b3c 1d3a 64bd
00000230: 6212 3abd 986c a3bc d986 35bd 1c27 16bd
00000240: aa1f 6bbd 2402 363c 94e8 83bc fd1b 88bd
00000250: 40ec 31bd 56cb 0ebd f79e 15bd dc8e 73bd
00000260: 6cd4 ce3c 529b 28bd 68bc 683c a89e 11bc
00000270: d6cf 353d 7691 12bd f4b2 cf3c 80b3 1e3b
00000280: 785f 843c 9c5e b4bb 1e00 39bd fa43 5bbd
00000290: b247 323c 1c6f 89bd 59c0 9abd 5061 23bc
000002a0: 3699 23bd 680f e9bc e863 24bd bc6b edbc
000002b0: 40cd c1bc 307a 8d3b 56b3 3ebd 1c0f dd3c
000002c0: d054 bbbb 7031 bbbb 4778 2bbd 1761 243d
000002d0: c915 dfbb 90eb f43b aaf7 0f3d 4448 69bd
000002e0: a75f c23a a882 043c 6009 72bd e89f 4bbd
000002f0: be81 a4bb bc5b ab3c c3bf 11bd 8487 303d
00000300: f4c5 23bd a1da bd3c 98ee 673d 046d 92bc
00000310: eabe 193d 5866 7bbd 54dd 4f3d 00ff 0dbb
00000320: 18d9 9d3c c228 063d 644d 60bd a642 86bd
00000330: c0d8 9c3b 70d5 1b3d ac29 80bc 83b8 38bd
00000340: 007b 32bc 368c 053d f896 573c bed0 753d
00000350: c012 283b 1034 6cbc 70b6 30bd 6c17 b6bc
00000360: 2a7c 51bd 62fb 153d b80a 0cbc 82d9 dcbb
00000370: e0f0 3b3c 8d02 98bd f23b 073c 15ba 88bd
00000380: e98d e8bc 314f b8bc 106b 843b 4056 0fbd
00000390: 5897 58bc 0d8c 9bbd 2814 35bd f0ff 7e3c
000003a0: f8f5 3dbd ff52 0dbd 76b9 4cbd ffb3 6cbc
000003b0: ae2b be3a d56d f2bc dc90 86bd aacf a7bd
000003c0: 64a1 5cbd 65f7 edbc 0b26 55bd fe1a 113d
000003d0: ac0d 0dbd f007 b13c 0a5c dd3c 6894 26bd
000003e0: 12ff 2dbd 385f 53bd 82c2 5abd ff76 f0ba
000003f0: 3e30 95bd c743 20bb 0037 98bb 29c2 143c
0.035428062 -0.03721394 0.06224887 0.017849267 -0.00901974 -0.016529448 -0.024433546 -0.0018856898
-0.0152114555 0.008517302 0.052865796 -0.024183705 -0.055768035 -0.016305659 -0.011799753 -0.06290914
0.017869575 -0.052594 -0.08472535 -0.048179734 0.0023864978 0.05109494 -0.007483285 0.0025661215
-0.052939795 -0.04207065 -0.025498087 -0.026618578 -0.011998099 -0.0141188195 -0.04753277 0.061201125
0.015473744 -0.054426186 0.054059125 -0.0006164089 -0.029772177 -0.0054186643 -0.06840036 -0.03193301
-0.018916862 -0.069956325 -0.055391766 -0.0093864 -0.0113494145 -0.046705168 -0.0036078177 -0.060060777
0.024268284 0.0040822444 -0.074889004 0.045634612 0.023516301 -0.051316537 -0.03888631 0.0062330216
0.033585757 -0.054714188 -0.05693744 -0.034373708 -0.0505614 -0.007987029 0.018956529 0.015562072
0.03368118 -0.055678815 0.030329183 -0.032697335 -0.01658018 0.0059074536 0.053149797 -0.03518039
-0.01999081 -0.04735699 -0.042771835 0.002501607 -0.0510455 -0.022028908 -0.05476468 -0.06053954
-0.028784487 0.03466028 0.027943693 -0.0217503 -0.034087975 0.010901496 0.04054213 0.029691657
-0.03668327 -0.021515504 -0.045601636 0.00030069798 -0.025493696 -0.051409148 -0.008326888 0.007465683
-0.061136864 0.048870444 0.020098694 -0.03954331 -0.009826444 0.037262995 -0.057210438 -0.013759267
-0.036814287 0.018899046 0.027027734 0.043496992 0.03814388 0.030921541 -0.049310334 0.014775574
-0.046931554 -0.019941568 0.0058538765 0.037413575 0.030545115 0.0050990656 0.054473124 0.02358576
0.003833957 -0.021147251 -0.005681821 0.020508088 -0.04226674 0.03212589 -0.07053921 0.0416922
0.010494672 -0.00077567704 0.033618405 0.00054813887 -0.0033711717 0.0071515967 -0.048544742 -0.0073727593
0.020187527 0.012117572 0.015354796 -0.055719484 -0.045427687 -0.019949242 -0.044318054 -0.03665839
-0.057403244 0.011108909 -0.016102113 -0.06645963 -0.043438196 -0.034861885 -0.036528554 -0.059462413
0.025247775 -0.04116375 0.014205076 -0.008887924 0.04438766 -0.035783254 0.025353886 0.0024215877
0.016158804 -0.0055044424 -0.045166127 -0.053531624 0.010881351 -0.067106456 -0.07556219 -0.009971932
-0.039941035 -0.02844973 -0.04013434 -0.028982036 -0.023657441 0.0043175444 -0.046557747 0.026984744
-0.0057168975 -0.0057126805 -0.041862752 0.040131655 -0.006808017 0.0074743703 0.0351483 -0.056953683
0.0014829532 0.0080877915 -0.059090972 -0.049713045 -0.0050203493 0.020917766 -0.03558327 0.043097988
-0.039983705 0.02317554 0.056624025 -0.017874248 0.037535585 -0.0613769 0.050748184 -0.0021666884
0.019268557 0.032753713 -0.054761305 -0.06555681 0.004786581 0.038045347 -0.01564487 -0.04509784
-0.010893583 0.03260442 0.013158552 0.060013525 0.0025645941 -0.01441671 -0.043142736 -0.022227965
-0.051143803 0.03661669 -0.008547477 -0.006739796 0.011471003 -0.074223615 0.008254038 -0.06676117
-0.02838798 -0.022498699 0.004041083 -0.034994364 -0.013219677 -0.07595072 -0.044208676 0.01556395
-0.046377152 -0.03450298 -0.049981557 -0.014447211 0.0014508867 -0.029593388 -0.065705985 -0.08193906
-0.05386485 -0.029048631 -0.052038234 0.035426132 -0.034436867 0.02161023 0.027021427 -0.040668875
-0.042479582 -0.05160448 -0.053408153 -0.001834601 -0.07284592 -0.002445446 -0.0046452284 0.0090794945

advantage_stream.0.bias f4 [128]
00000000: bb55 b8bd 67e9 b33d b36d 813c 4041 d4bd
00000010: f04d a3bd bf04 7bbd f023 ca3d 14eb 8bbd
00000020: 9eae 023c 017a 17be 7429 203d f17b 99bc
00000030: 4fe7 46bd 181f 4b3b c681 c6bd 0db6 43bd
00000040: e4e9 26be b97d 583d 4435 3bbd a8a1 473d
00000050: 87dc a8bd b83c 973d f856 9fbd b461 b9bd
00000060: 4a2d 75bd 274c f4bd 0fd7 9ebc f722 af3c
00000070: c4c4 89be 7780 c4bc 4084 e03d 35b8 7fbd
00000080: c3fd 8abd 390f 8c3d 5a47 673c 11d1 21bc
00000090: 49c2 fe3b bb9d 00bd 331f 2d3d 475f b93e
000000a0: fbae a5bc e94a 753c 4b99 a5bd 1395 aa3d
000000b0: c3de 99bd beb7 4bbc 0652 93be bb61 c7bd
000000c0: be0e 1cbd 4383 65bd 9cf5 9c3c 6bbe 8b3e
000000d0: 42cc 263e de1d 7f3b e388 d03b 27c7 653e
000000e0: cfc5 e7bb 18bd b7bd 7fe2 a53c a42c 51bd
000000f0: b407 72bc f304 5b3e c1aa 00bb db38 10be
00000100: 3e98 aebd e489 89bd 10b2 00bd 8131 9a3c
00000110: 8ee4 82bb a22d 86bd 4c9e 7d3e 4b84 22bb
00000120: df3f 1f3d b521 003e 77ee c8bd 4d7c 93bd
00000130: 3ca6 bfbd 76af 64bd 64e1 edbd 8b62 f03c
00000140: ca0b 99bd e2a6 d2bd b90b da3c 5ed5 95bd
00000150: fb25 063d 5dfe f93d f1fe 94bd d19c 82bd
00000160: c92f f03d ce00 5f3c 0df4 8ebd 91e4 7c3e
00000170: c0db 5d3e 922f 763d a6c0 b53b 585f 1bbd
00000180: 12fe 80bd c626 fd3c 7d08 f03d adfb 8f3c
00000190: 6f52 d8bd 3802 a6bd b8b4 d9bc 5620 da3d
000001a0: 9a08 a4bd deb0 1bbe 5cc0 e53d 9f45 7abd
000001b0: 10de 0d3d 589d b3bd 002b 03bc dfee a8bc
000001c0: f259 32bc ccc0 9d3d 56b2 afbd 8aba 0abd
000001d0: a05d ac3d 2559 4a3d 50a9 77bd 71de 97bd
000001e0: 28b0 a0be 70fe bf3e 0a7d 813d bbd3 51bb
000001f0: e7a1 4b3c de68 12bd 0a47 95bc 828d 8f3e
-0.09000727 0.08784752 0.015799379 -0.10364008 -0.0797385 -0.061283823 0.09870136 -0.06831947
0.007976202 -0.14792635 0.039102033 -0.018735858 -0.048560437 0.0030993875 -0.09692721 -0.04778104
-0.1630016 0.052854273 -0.045705095 0.04873815 -0.08245187 0.07384628 -0.0778026 -0.090518385
-0.059857644 -0.119285874 -0.019389657 0.021378977 -0.26907933 -0.023987038 0.10962725 -0.062431533
-0.067866825 0.06838841 0.014116133 -0.0098765055 0.0077746254 -0.031400423 0.042266082 0.36205503
-0.020225039 0.014971473 -0.08085879 0.08329215 -0.075131916 -0.012433944 -0.28773516 -0.097354375
-0.038099997 -0.056033384 0.019160084 0.27293715 0.16288856 0.0038927714 0.0063639744 0.22439252
-0.007073141 -0.08971614 0.020249603 -0.051067963 -0.014772344 0.21388607 -0.0019633027 -0.14084189
-0.08525132 -0.06715754 -0.031419814 0.018822433 -0.003994531 -0.065516725 0.24767417 -0.002479809
0.03887927 0.12512858 -0.098111086 -0.07201443 -0.093578786 -0.055831395 -0.116152555 0.029343864
-0.07472952 -0.102857366 0.026616918 -0.07316087 0.032751065 0.12206719 -0.07275189 -0.063775666
0.11727864 0.013611032 -0.06980143 0.24696566 0.21665859 0.06010396 0.005546647 -0.037932724
-0.0629846 0.030902278 0.11720369 0.017576063 -0.10562598 -0.08105892 -0.026575431 0.10650699
-0.08009453 -0.15204188 0.1121833 -0.061101552 0.034635603 -0.08770245 -0.0080058575 -0.020621715
-0.010885702 0.07702789 -0.08578937 -0.033869304 0.08416295 0.04940142 -0.060464203 -0.07415474
-0.31384397 0.37498808 0.063226774 -0.003201707 0.012428737 -0.03574454 -0.01822235 0.2803765
